…
e, world_size=1, dist_on_itp=False, dist_url='env://', enable_deepspeed=False, debug=False, local_rank=0, rank=0, gpu=0, distributed=True, dist_backend='nccl')
Number of the class = 400
Number of the class = 400
Sampler_train = <torch.utils.data.distributed.DistributedSampler object at 0x2af98d53f280>
Mixup is activated!
/gpfs/fs2/scratch/wlin33/CodedExposure/VideoMAEv2/coded/coded_AR/models/c3d.py:52: UserWarning: nn.init.kaiming_normal is now deprecated in favor of nn.init.kaiming_normal_.
  m.weight = nn.init.kaiming_normal(m.weight, mode='fan_out')
Patch size = (8, 8)
Model = C3D(
  (conv1): Conv3d(1, 64, kernel_size=(3, 3, 3), stride=(1, 1, 1), padding=(1, 1, 1))
  (bn1): BatchNorm3d(64, eps=1e-05, momentum=0.1, affine=True, track_running_stats=True)
  (conv2): Conv3d(64, 128, kernel_size=(3, 3, 3), stride=(1, 1, 1), padding=(1, 1, 1))
  (bn2): BatchNorm3d(128, eps=1e-05, momentum=0.1, affine=True, track_running_stats=True)
  (conv3a): Conv3d(128, 256, kernel_size=(3, 3, 3), stride=(1, 1, 1), padding=(1, 1, 1))
  (conv3b): Conv3d(256, 256, kernel_size=(3, 3, 3), stride=(1, 1, 1), padding=(1, 1, 1))
  (bn3): BatchNorm3d(256, eps=1e-05, momentum=0.1, affine=True, track_running_stats=True)
  (conv4a): Conv3d(256, 512, kernel_size=(3, 3, 3), stride=(1, 1, 1), padding=(1, 1, 1))
  (conv4b): Conv3d(512, 512, kernel_size=(3, 3, 3), stride=(1, 1, 1), padding=(1, 1, 1))
  (bn4): BatchNorm3d(512, eps=1e-05, momentum=0.1, affine=True, track_running_stats=True)
  (conv5a): Conv3d(512, 512, kernel_size=(3, 3, 3), stride=(1, 1, 1), padding=(1, 1, 1))
  (conv5b): Conv3d(512, 512, kernel_size=(3, 3, 3), stride=(1, 1, 1), padding=(1, 1, 1))
  (bn5): BatchNorm3d(512, eps=1e-05, momentum=0.1, affine=True, track_running_stats=True)
  (fc6): Linear(in_features=8192, out_features=4096, bias=True)
  (bn6): BatchNorm2d(4096, eps=1e-05, momentum=0.1, affine=True, track_running_stats=True)
  (fc7): Linear(in_features=4096, out_features=400, bias=True)
)
number of params: 62860944
LR = 0.00005000
Batch size = 64
Update frequent = 2
Number of training examples = 240436
Number of training training per epoch = 3756
Param groups = {
  "decay": {
    "weight_decay": 0.001,
    "params": [
      "conv1.weight",
      "conv2.weight",
      "conv3a.weight",
      "conv3b.weight",
      "conv4a.weight",
      "conv4b.weight",
…
