…
 num_workers=12, pin_mem=True, world_size=1, dist_on_itp=False, dist_url='env://', enable_deepspeed=False, debug=False, coded_type='pami', coded_template_folder='./decorrelation_training_wd0_norm_new', local_rank=0, cross_model_path='', rank=0, gpu=0, distributed=True, dist_backend='nccl')
Number of the class = 400
Number of the class = 400
Sampler_train = <torch.utils.data.distributed.DistributedSampler object at 0x2b2a35596860>
Mixup is activated!
Patch size = (8, 8)
Model = C2DPt(
  (conv1): PatternConv(
    pattern_size=(8, 8), Conv2d(1, 64, kernel_size=(3, 3), stride=(8, 8))
    (weight00): Conv2d(1, 64, kernel_size=(3, 3), stride=(8, 8))
    (weight01): Conv2d(1, 64, kernel_size=(3, 3), stride=(8, 8))
    (weight02): Conv2d(1, 64, kernel_size=(3, 3), stride=(8, 8))
    (weight03): Conv2d(1, 64, kernel_size=(3, 3), stride=(8, 8))
    (weight04): Conv2d(1, 64, kernel_size=(3, 3), stride=(8, 8))
    (weight05): Conv2d(1, 64, kernel_size=(3, 3), stride=(8, 8))
    (weight06): Conv2d(1, 64, kernel_size=(3, 3), stride=(8, 8))
    (weight07): Conv2d(1, 64, kernel_size=(3, 3), stride=(8, 8))
    (weight10): Conv2d(1, 64, kernel_size=(3, 3), stride=(8, 8))
    (weight11): Conv2d(1, 64, kernel_size=(3, 3), stride=(8, 8))
    (weight12): Conv2d(1, 64, kernel_size=(3, 3), stride=(8, 8))
    (weight13): Conv2d(1, 64, kernel_size=(3, 3), stride=(8, 8))
    (weight14): Conv2d(1, 64, kernel_size=(3, 3), stride=(8, 8))
    (weight15): Conv2d(1, 64, kernel_size=(3, 3), stride=(8, 8))
    (weight16): Conv2d(1, 64, kernel_size=(3, 3), stride=(8, 8))
    (weight17): Conv2d(1, 64, kernel_size=(3, 3), stride=(8, 8))
    (weight20): Conv2d(1, 64, kernel_size=(3, 3), stride=(8, 8))
    (weight21): Conv2d(1, 64, kernel_size=(3, 3), stride=(8, 8))
    (weight22): Conv2d(1, 64, kernel_size=(3, 3), stride=(8, 8))
    (weight23): Conv2d(1, 64, kernel_size=(3, 3), stride=(8, 8))
    (weight24): Conv2d(1, 64, kernel_size=(3, 3), stride=(8, 8))
    (weight25): Conv2d(1, 64, kernel_size=(3, 3), stride=(8, 8))
    (weight26): Conv2d(1, 64, kernel_size=(3, 3), stride=(8, 8))
    (weight27): Conv2d(1, 64, kernel_size=(3, 3), stride=(8, 8))
    (weight30): Conv2d(1, 64, kernel_size=(3, 3), stride=(8, 8))
    (weight31): Conv2d(1, 64, kernel_size=(3, 3), stride=(8, 8))
    (weight32): Conv2d(1, 64, kernel_size=(3, 3), stride=(8, 8))
    (weight33): Conv2d(1, 64, kernel_size=(3, 3), stride=(8, 8))
    (weight34): Conv2d(1, 64, kernel_size=(3, 3), stride=(8, 8))
    (weight35): Conv2d(1, 64, kernel_size=(3, 3), stride=(8, 8))
    (weight36): Conv2d(1, 64, kernel_size=(3, 3), stride=(8, 8))
    (weight37): Conv2d(1, 64, kernel_size=(3, 3), stride=(8, 8))
    (weight40): Conv2d(1, 64, kernel_size=(3, 3), stride=(8, 8))
    (weight41): Conv2d(1, 64, kernel_size=(3, 3), stride=(8, 8))
    (weight42): Conv2d(1, 64, kernel_size=(3, 3), stride=(8, 8))
    (weight43): Conv2d(1, 64, kernel_size=(3, 3), stride=(8, 8))
    (weight44): Conv2d(1, 64, kernel_size=(3, 3), stride=(8, 8))
    (weight45): Conv2d(1, 64, kernel_size=(3, 3), stride=(8, 8))
    (weight46): Conv2d(1, 64, kernel_size=(3, 3), stride=(8, 8))
    (weight47): Conv2d(1, 64, kernel_size=(3, 3), stride=(8, 8))
    (weight50): Conv2d(1, 64, kernel_size=(3, 3), stride=(8, 8))
    (weight51): Conv2d(1, 64, kernel_size=(3, 3), stride=(8, 8))
    (weight52): Conv2d(1, 64, kernel_size=(3, 3), stride=(8, 8))
    (weight53): Conv2d(1, 64, kernel_size=(3, 3), stride=(8, 8))
    (weight54): Conv2d(1, 64, kernel_size=(3, 3), stride=(8, 8))
    (weight55): Conv2d(1, 64, kernel_size=(3, 3), stride=(8, 8))
    (weight56): Conv2d(1, 64, kernel_size=(3, 3), stride=(8, 8))
    (weight57): Conv2d(1, 64, kernel_size=(3, 3), stride=(8, 8))
    (weight60): Conv2d(1, 64, kernel_size=(3, 3), stride=(8, 8))
    (weight61): Conv2d(1, 64, kernel_size=(3, 3), stride=(8, 8))
    (weight62): Conv2d(1, 64, kernel_size=(3, 3), stride=(8, 8))
    (weight63): Conv2d(1, 64, kernel_size=(3, 3), stride=(8, 8))
    (weight64): Conv2d(1, 64, kernel_size=(3, 3), stride=(8, 8))
    (weight65): Conv2d(1, 64, kernel_size=(3, 3), stride=(8, 8))
    (weight66): Conv2d(1, 64, kernel_size=(3, 3), stride=(8, 8))
    (weight67): Conv2d(1, 64, kernel_size=(3, 3), stride=(8, 8))
    (weight70): Conv2d(1, 64, kernel_size=(3, 3), stride=(8, 8))
    (weight71): Conv2d(1, 64, kernel_size=(3, 3), stride=(8, 8))
    (weight72): Conv2d(1, 64, kernel_size=(3, 3), stride=(8, 8))
    (weight73): Conv2d(1, 64, kernel_size=(3, 3), stride=(8, 8))
    (weight74): Conv2d(1, 64, kernel_size=(3, 3), stride=(8, 8))
    (weight75): Conv2d(1, 64, kernel_size=(3, 3), stride=(8, 8))
    (weight76): Conv2d(1, 64, kernel_size=(3, 3), stride=(8, 8))
    (weight77): Conv2d(1, 64, kernel_size=(3, 3), stride=(8, 8))
  )
  (bn1): BatchNorm2d(64, eps=1e-05, momentum=0.1, affine=True, track_running_stats=True)
  (conv2): Conv2d(64, 128, kernel_size=(3, 3), stride=(1, 1), padding=(1, 1))
  (bn2): BatchNorm2d(128, eps=1e-05, momentum=0.1, affine=True, track_running_stats=True)
  (conv3a): Conv2d(128, 256, kernel_size=(3, 3), stride=(1, 1), padding=(1, 1))
  (conv3b): Conv2d(256, 256, kernel_size=(3, 3), stride=(1, 1), padding=(1, 1))
  (bn3): BatchNorm2d(256, eps=1e-05, momentum=0.1, affine=True, track_running_stats=True)
  (conv4a): Conv2d(256, 512, kernel_size=(3, 3), stride=(1, 1), padding=(1, 1))
  (conv4b): Conv2d(512, 512, kernel_size=(3, 3), stride=(1, 1), padding=(1, 1))
  (bn4): BatchNorm2d(512, eps=1e-05, momentum=0.1, affine=True, track_running_stats=True)
  (conv5a): Conv2d(512, 512, kernel_size=(3, 3), stride=(1, 1), padding=(1, 1))
  (conv5b): Conv2d(512, 512, kernel_size=(3, 3), stride=(1, 1), padding=(1, 1))
  (bn5): BatchNorm2d(512, eps=1e-05, momentum=0.1, affine=True, track_running_stats=True)
  (fc6): Linear(in_features=8192, out_features=4096, bias=True)
  (bn6): BatchNorm2d(4096, eps=1e-05, momentum=0.1, affine=True, track_running_stats=True)
  (fc7): Linear(in_features=4096, out_features=400, bias=True)
  (coded_layer): Exposuref(binarize_typ=full, t=16, s=8)
)
number of params: 44469136
LR = 0.00005000
Batch size = 64
Update frequent = 1
Number of training examples = 240436
Number of training training per epoch = 3756
Param groups = {
  "coded_layer_no_decay": {
    "weight_decay": 0.0,
    "params": [
      "coded_layer.weight"
    ],
    "lr_scale": 365.79046825562125
…
